…
    RandomAffine(degrees=[-15.0, 15.0], translate=(0.1, 0.1), scale=(0.9, 1.1), shear=[-10.0, 10.0])
    RandomHorizontalFlip(p=0.5)
    RandomVerticalFlip(p=0.5)
    Resize(size=(224, 224), interpolation=bilinear)
    Normalize(mean=[0.485, 0.456, 0.406], std=[0.229, 0.224, 0.225])
)
2021-06-14 22:07:26,383 - INFO - image transforms for testing
 Compose(
    Resize(size=(224, 224), interpolation=bilinear)
    Normalize(mean=[0.485, 0.456, 0.406], std=[0.229, 0.224, 0.225])
)
2021-06-14 22:07:27,128 - INFO - total classes are 133
2021-06-14 22:07:27,166 - INFO - dogBreedClassifier(
  (model): SqueezeNet(
    (features): Sequential(
      (0): Conv2d(3, 96, kernel_size=(7, 7), stride=(2, 2))
      (1): ReLU(inplace=True)
      (2): MaxPool2d(kernel_size=3, stride=2, padding=0, dilation=1, ceil_mode=True)
      (3): Fire(
        (squeeze): Conv2d(96, 16, kernel_size=(1, 1), stride=(1, 1))
        (squeeze_activation): ReLU(inplace=True)
        (expand1x1): Conv2d(16, 64, kernel_size=(1, 1), stride=(1, 1))
        (expand1x1_activation): ReLU(inplace=True)
        (expand3x3): Conv2d(16, 64, kernel_size=(3, 3), stride=(1, 1), padding=(1, 1))
        (expand3x3_activation): ReLU(inplace=True)
      )
      (4): Fire(
        (squeeze): Conv2d(128, 16, kernel_size=(1, 1), stride=(1, 1))
        (squeeze_activation): ReLU(inplace=True)
        (expand1x1): Conv2d(16, 64, kernel_size=(1, 1), stride=(1, 1))
        (expand1x1_activation): ReLU(inplace=True)
        (expand3x3): Conv2d(16, 64, kernel_size=(3, 3), stride=(1, 1), padding=(1, 1))
        (expand3x3_activation): ReLU(inplace=True)
      )
      (5): Fire(
        (squeeze): Conv2d(128, 32, kernel_size=(1, 1), stride=(1, 1))
        (squeeze_activation): ReLU(inplace=True)
        (expand1x1): Conv2d(32, 128, kernel_size=(1, 1), stride=(1, 1))
        (expand1x1_activation): ReLU(inplace=True)
        (expand3x3): Conv2d(32, 128, kernel_size=(3, 3), stride=(1, 1), padding=(1, 1))
        (expand3x3_activation): ReLU(inplace=True)
      )
      (6): MaxPool2d(kernel_size=3, stride=2, padding=0, dilation=1, ceil_mode=True)
      (7): Fire(
        (squeeze): Conv2d(256, 32, kernel_size=(1, 1), stride=(1, 1))
        (squeeze_activation): ReLU(inplace=True)
        (expand1x1): Conv2d(32, 128, kernel_size=(1, 1), stride=(1, 1))
        (expand1x1_activation): ReLU(inplace=True)
        (expand3x3): Conv2d(32, 128, kernel_size=(3, 3), stride=(1, 1), padding=(1, 1))
        (expand3x3_activation): ReLU(inplace=True)
      )
      (8): Fire(
        (squeeze): Conv2d(256, 48, kernel_size=(1, 1), stride=(1, 1))
        (squeeze_activation): ReLU(inplace=True)
        (expand1x1): Conv2d(48, 192, kernel_size=(1, 1), stride=(1, 1))
        (expand1x1_activation): ReLU(inplace=True)
        (expand3x3): Conv2d(48, 192, kernel_size=(3, 3), stride=(1, 1), padding=(1, 1))
        (expand3x3_activation): ReLU(inplace=True)
      )
      (9): Fire(
        (squeeze): Conv2d(384, 48, kernel_size=(1, 1), stride=(1, 1))
        (squeeze_activation): ReLU(inplace=True)
        (expand1x1): Conv2d(48, 192, kernel_size=(1, 1), stride=(1, 1))
        (expand1x1_activation): ReLU(inplace=True)
        (expand3x3): Conv2d(48, 192, kernel_size=(3, 3), stride=(1, 1), padding=(1, 1))
        (expand3x3_activation): ReLU(inplace=True)
      )
      (10): Fire(
        (squeeze): Conv2d(384, 64, kernel_size=(1, 1), stride=(1, 1))
        (squeeze_activation): ReLU(inplace=True)
        (expand1x1): Conv2d(64, 256, kernel_size=(1, 1), stride=(1, 1))
        (expand1x1_activation): ReLU(inplace=True)
        (expand3x3): Conv2d(64, 256, kernel_size=(3, 3), stride=(1, 1), padding=(1, 1))
        (expand3x3_activation): ReLU(inplace=True)
      )
      (11): MaxPool2d(kernel_size=3, stride=2, padding=0, dilation=1, ceil_mode=True)
      (12): Fire(
        (squeeze): Conv2d(512, 64, kernel_size=(1, 1), stride=(1, 1))
        (squeeze_activation): ReLU(inplace=True)
        (expand1x1): Conv2d(64, 256, kernel_size=(1, 1), stride=(1, 1))
        (expand1x1_activation): ReLU(inplace=True)
        (expand3x3): Conv2d(64, 256, kernel_size=(3, 3), stride=(1, 1), padding=(1, 1))
        (expand3x3_activation): ReLU(inplace=True)
      )
    )
    (classifier): Sequential(
      (0): Dropout(p=0.5, inplace=False)
      (1): Conv2d(512, 133, kernel_size=(1, 1), stride=(1, 1))
      (2): ReLU(inplace=True)
      (3): AdaptiveAvgPool2d(output_size=(1, 1))
    )
  )
)
2021-06-14 22:07:27,167 - INFO - Params to learn:
2021-06-14 22:07:27,168 - INFO - 	model.classifier.1.weight
2021-06-14 22:07:27,168 - INFO - 	model.classifier.1.bias
2021-06-14 22:07:27,169 - INFO - Epoch 1
-------------------------------
2021-06-14 22:07:30,347 - INFO - loss: 420.416138  [    0/ 6679]
…
